…
{'clipnorm': 3.83419132622, 'loss': 'mae', 'layers': 24, 'optimizer': 'rmsprop', 'beta1': 8.8571985335, 'decay': 2.09171327799, 'nesterov': True, 'epsilon': 6.54529451282, 'activation': 'softmax', 'batch_size': 304, 'rnn_type': 'GRU', 'epochs': 5, 'init': 'normal', 'clipvalue': 0.0211091157574, 'beta2': 1.64172190801, 'rho': 1.44856207652, 'lr': 1.50789182372, 'hidden_size': 128, 'dropout': 0.0, 'momentum': 0.911810403185, 'backend': 'tensorflow'}
Generating data...
Total addition questions: 500
Vectorization...
Training Data:
(450, 7, 12)
(450, 4, 12)
Validation Data:
(50, 7, 12)
(50, 4, 12)
Build model...
_________________________________________________________________
Layer (type)                 Output Shape              Param #   
=================================================================
gru_1 (GRU)                  (None, 128)               54144     
_________________________________________________________________
repeat_vector_1 (RepeatVecto (None, 4, 128)            0         
_________________________________________________________________
gru_2 (GRU)                  (None, 4, 128)            98688     
_________________________________________________________________
gru_3 (GRU)                  (None, 4, 128)            98688     
_________________________________________________________________
gru_4 (GRU)                  (None, 4, 128)            98688     
_________________________________________________________________
gru_5 (GRU)                  (None, 4, 128)            98688     
_________________________________________________________________
gru_6 (GRU)                  (None, 4, 128)            98688     
_________________________________________________________________
gru_7 (GRU)                  (None, 4, 128)            98688     
_________________________________________________________________
gru_8 (GRU)                  (None, 4, 128)            98688     
_________________________________________________________________
gru_9 (GRU)                  (None, 4, 128)            98688     
_________________________________________________________________
gru_10 (GRU)                 (None, 4, 128)            98688     
_________________________________________________________________
gru_11 (GRU)                 (None, 4, 128)            98688     
_________________________________________________________________
gru_12 (GRU)                 (None, 4, 128)            98688     
_________________________________________________________________
gru_13 (GRU)                 (None, 4, 128)            98688     
_________________________________________________________________
gru_14 (GRU)                 (None, 4, 128)            98688     
_________________________________________________________________
gru_15 (GRU)                 (None, 4, 128)            98688     
_________________________________________________________________
gru_16 (GRU)                 (None, 4, 128)            98688     
_________________________________________________________________
gru_17 (GRU)                 (None, 4, 128)            98688     
_________________________________________________________________
gru_18 (GRU)                 (None, 4, 128)            98688     
_________________________________________________________________
gru_19 (GRU)                 (None, 4, 128)            98688     
_________________________________________________________________
gru_20 (GRU)                 (None, 4, 128)            98688     
_________________________________________________________________
gru_21 (GRU)                 (None, 4, 128)            98688     
_________________________________________________________________
gru_22 (GRU)                 (None, 4, 128)            98688     
_________________________________________________________________
gru_23 (GRU)                 (None, 4, 128)            98688     
_________________________________________________________________
gru_24 (GRU)                 (None, 4, 128)            98688     
_________________________________________________________________
gru_25 (GRU)                 (None, 4, 128)            98688     
_________________________________________________________________
time_distributed_1 (TimeDist (None, 4, 12)             1548      
_________________________________________________________________
activation_1 (Activation)    (None, 4, 12)             0         
=================================================================
Total params: 2,424,204
Trainable params: 2,424,204
Non-trainable params: 0
_________________________________________________________________
Train on 450 samples, validate on 50 samples
Epoch 1/5
304/450 [===================>..........] - ETA: 11s - loss: 2.4849 - acc: 0.3413450/450 [==============================] - 26s - loss: 2.4744 - acc: 0.3411 - val_loss: 2.4468 - val_acc: 0.3050
…
